results/peft_model/checkpoint-140/adapter_model.safetensors (safetensors, 599080 bytes, 25 tensors)

base_model.model.score.weight f4 [2, 768]
0	0x3c4acec6	0.0123784
1	0x3af646fe	0.0018789468
2	0x3d3fcbd2	0.046825238
3	0xbb4e3528	-0.003146479
4	0xbc82b99d	-0.015957648
5	0x3b06f8eb	0.0020595144
6	0x3d17ef00	0.037093163
7	0xbc9ab78b	-0.018886348
8	0xbcac8441	-0.021059157
9	0x3c7d38db	0.01545545
10	0xbc0bbffc	-0.008529659
11	0x3d343ac3	0.044001352
12	0x3cc2e2e1	0.023789825
13	0x3cfd9c99	0.03095846
14	0xbccb1585	-0.024790535
15	0xbc24b8c2	-0.010053815
16	0x3be4f5b4	0.006987298
17	0xbc74f12e	-0.01495008
18	0x3bd31c3c	0.006442575
19	0x3c89c1b1	0.016815992
20	0x3c87435f	0.016511617
21	0x3ca265ad	0.019823873
22	0xbd31e381	-0.043429855
23	0x3bcea085	0.0063057565
24	0xbc03263e	-0.008004723
25	0x3b823c03	0.003974439
26	0xbcad30ba	-0.021141399
27	0xbd4fbb7e	-0.050715916
28	0xbc2f479d	-0.010698226
29	0xbc0d13c3	-0.008610669
30	0x3ba5078c	0.0050363
31	0x3b18c563	0.002331101
32	0xbc880c8e	-0.016607549
33	0xbc847ae0	-0.016171873
34	0x3c7575e7	0.014981723
35	0xbcc23fc6	-0.02371205
36	0xbcab037d	-0.020875687
37	0x3d16255b	0.03665672
38	0xbcc187e5	-0.02362437
39	0xbc9721c3	-0.018448716
40	0xbc4ad5c4	-0.012380067
41	0xbc9d7dc7	-0.019225014
42	0x3c3aac41	0.011393608
43	0x3d6f579e	0.058433168
44	0x3c160218	0.009155773
45	0x3acf2a85	0.0015805518
46	0x3bf3270f	0.0074204276
47	0x3af6158c	0.0018774732
48	0x3b8089b7	0.003922667
49	0xbd0602f2	-0.032717653
50	0x3cba05d8	0.022707865
51	0xbbd540f0	-0.0065079853
52	0xbc9ea177	-0.019364102
53	0xbd347399	-0.044055555
54	0x3ccabe47	0.024748934
55	0xbc6191f6	-0.01376771
56	0x3c86c5bd	0.01645171
57	0x3c0ec6c5	0.008714383
58	0xbbb0659d	-0.005383207
59	0x3bf601d8	0.007507544
60	0x3cc9810a	0.024597663
61	0x3c417c1c	0.011809375
62	0xbc4ea9ba	-0.012613708
63	0x3cb22c3c	0.021749608
64	0xbb1a2c2f	-0.002352487
65	0x3cdc7957	0.026913328
66	0x3c5465cb	0.012963722
67	0x3c68cc47	0.01420886
68	0xbd117148	-0.035508424
69	0xbce56326	-0.02800138
70	0x3c564a20	0.013079196
71	0x3cff389c	0.031154923
72	0xbb349f0c	-0.002756062
73	0x3ccfd7ee	0.025371518
74	0x3aef22c8	0.0018244619
75	0x3cb24e80	0.021765947
76	0x3d05ab10	0.03263384
77	0xbc7b1bb4	-0.015326429
78	0x3cda5fb0	0.026656955
79	0x3c96cbb6	0.018407684
80	0xbc4c1763	-0.012456748
81	0xbb5bdc10	-0.0033547916
82	0x3c7ebc21	0.015547783
83	0x3c061bf1	0.008185373
84	0x38cc02f3	9.728027e-05
85	0x3c1986f7	0.009370557
86	0xbb0c4121	-0.0021401125
87	0x3d2c9eca	0.04214362
88	0xbc876808	-0.016529098
89	0x3bb07858	0.00538544
90	0x3c09079d	0.008363632
91	0x3b83f14e	0.0040265685
92	0x38b36fc3	8.5562024e-05
93	0xb95d9724	-0.00021132507
94	0x3c2aeb6d	0.010432106
95	0xbc2b3892	-0.010450499
96	0x3c6641ed	0.014053804
97	0x3afc66f4	0.0019256757
98	0x3d3e971b	0.046530824
99	0xbc951f99	-0.018203543
100	0xbc5d04ea	-0.013489941
101	0x3c365fc8	0.0111312345
102	0x3ce1bad6	0.02755491
103	0xbd3a98a0	-0.04555571
104	0x3bd4a61e	0.0064895293
105	0x3ce4f9e5	0.02795119
106	0xbc28376f	-0.010267123
107	0x3c5efd3e	0.013610182
108	0x3c478541	0.012177766
109	0x3c455a79	0.012045496
110	0xbc55fde6	-0.013061022
111	0x3b01e045	0.0019817513
112	0xbca99500	-0.020700932
113	0x3c52936f	0.012852534
114	0x3bed4d43	0.0072418763
115	0x3c175e2e	0.009238763
116	0xbb934272	-0.004494005
117	0xbc61411f	-0.013748436
118	0xbd116799	-0.03549919
119	0xbb71fc3d	-0.0036924027
120	0xbb2d1714	-0.002641146
121	0xbcf5a49c	-0.029985718
122	0xbbadd7bd	-0.005305259
123	0xbbf890a3	-0.0075856014
124	0x3cf48f57	0.029853506
125	0x3c51d947	0.012808151
126	0xbb1a197e	-0.002351373
127	0x3c6f81d8	0.0146183595
128	0x3d14e243	0.036348592
129	0xbcccfbd2	-0.025022421
130	0x3b967e33	0.004592681
131	0x3cf85550	0.030314118
132	0xbcd526fe	-0.02601957
133	0xbc46d015	-0.012134572
134	0x3adfa30b	0.001706214
135	0x3b7f4eb4	0.0038956823
136	0xbba58970	-0.005051784
137	0x3c1759b3	0.009237695
138	0xbd29b7d1	-0.041435067
139	0x3c54fe09	0.01300002
140	0x3cbf4a51	0.023350867
141	0xbb3983fd	-0.002830743
142	0xbcc4357e	-0.023951288
143	0x3c338615	0.010957261
144	0x3bd2a22f	0.006428025
145	0x3af07168	0.0018344345
146	0x3bbe3a47	0.005805287
147	0x3d486e3d	0.048933256
148	0xbbd7d874	-0.0065870825
149	0xbd416add	-0.047221053
150	0x3d10da60	0.03536451
151	0xbbb1e0bf	-0.005428403
152	0xbcd0cfe3	-0.025489753
153	0x3c6a5cc7	0.014304346
154	0x3c455db2	0.0120462645
155	0x3d19c071	0.037537042
156	0xbbfdfa2f	-0.0077507715
157	0x3d02da80	0.03194666
158	0xbce90588	-0.02844502
159	0xbcbbb245	-0.022912154
160	0xbb59581b	-0.0033164087
161	0xbc304c98	-0.010760449
162	0xbbf56277	-0.0074885446
163	0xbc2e98b0	-0.010656521
164	0x3c8a21c1	0.016861798
165	0xbc8c1646	-0.017100465
166	0xbd07d47e	-0.033161633
167	0x3c01d9e3	0.007925483
168	0x3bd9e568	0.006649662
169	0x3c26b163	0.010174128
170	0x3ccab414	0.024744071
171	0xbce591d4	-0.028023638
172	0x3cd9f2b1	0.026604982
173	0x3ca87dca	0.020567793
174	0x3c052898	0.008127354
175	0xbc85dc7a	-0.016340483
176	0xb9b96ec2	-0.0003536847
177	0xbbbe64d0	-0.0058103576
178	0x3b5b941a	0.0033505023
179	0x3d07d864	0.03316535
180	0xbc06228b	-0.008186947
181	0xbcfcf2af	-0.03087744
182	0xbc7faef0	-0.015605673
183	0xbc878c89	-0.016546505
184	0x3b71f1a8	0.003691772
185	0xbd06b592	-0.032888003
186	0x3afc0935	0.0019228818
187	0xbd184c55	-0.03718217
188	0x3b19a055	0.0023441513
189	0xbcffc78e	-0.031223085
190	0x3cb5c09c	0.02218657
191	0xbc427c83	-0.011870506
192	0xbc2cee3b	-0.010554845
193	0x3c54a90d	0.012979758
194	0x3d09a481	0.03360415
195	0xbc044e60	-0.008075327
196	0xbb3cb45c	-0.0028794026
197	0xb8f087dc	-0.000114693976
198	0xbbfa6727	-0.0076416912
199	0x3cf48c65	0.029852102
200	0xbb17581a	-0.0023093284
201	0xbb04771c	-0.0020212596
202	0xbbb69e87	-0.005573097
203	0xbb3cc339	-0.0028802885
204	0xbb83636e	-0.0040096557
205	0x3d3c6e20	0.04600346
206	0xbc1b0c8b	-0.00946344
207	0x3b960b4a	0.0045789825
208	0x3a8f735c	0.0010944414
209	0x3c91aede	0.017783578
210	0xbc2fad39	-0.010722452
211	0x3c14b74a	0.009076903
212	0x3cd43fff	0.025909422
213	0xbc78cc90	-0.01518549
214	0xbc02d288	-0.007984765
215	0xbcbff068	-0.023430064
216	0xbcef7ff8	-0.029235825
217	0x3b10a375	0.0022070084
218	0x3d146f94	0.03623922
219	0xbc2fbb2c	-0.010725778
220	0xbd815215	-0.06314484
221	0xbc4d3810	-0.012525573
222	0x3b92a45b	0.004475159
223	0x3ad60882	0.001632944
224	0x3c3471d8	0.011013471
225	0xbbe2e9dc	-0.006924851
226	0xbbe49394	-0.0069756005
227	0xbceaa465	-0.028642843
228	0xbb6a8a8f	-0.0035788154
229	0x3cfddd19	0.030989217
230	0x3c8df42f	0.01732835
231	0xbb4e21bf	-0.003145322
232	0xbc8e6d7e	-0.017386194
233	0x3c956f86	0.018241655
234	0xba8264a9	-0.0009948212
235	0x3d154e01	0.036451343
236	0xbc80eb7e	-0.015737291
237	0xbd2cf2c1	-0.042223696
238	0x3c25d150	0.010120705
239	0x3d23f7ed	0.040031362
240	0xbbaa59b9	-0.005198684
241	0xbc82d499	-0.015970515
242	0x3ba38af9	0.004990932
243	0x3bb42e88	0.005498711
244	0xbcf50027	-0.0299073
245	0xbae93d35	-0.001779473
246	0xbbb69aed	-0.005572668
247	0xb9c33c4a	-0.00037238217
248	0x3af3f01f	0.001861099
249	0x3ab93d7a	0.0014132701
250	0xbbcebf5b	-0.0063094324
251	0x3c079f9d	0.008277801
252	0x3c5f75e7	0.01363895
253	0x3c86f1c4	0.016472705
254	0x3c7c0a4d	0.015383315
255	0xbcc69951	-0.024243029

base_model.model.transformer.h.0.attn.c_attn.lora_A.weight f4 [4, 768]
0	0xbcbf979e	-0.023387726
1	0x3cd32d13	0.025778329
2	0xbd0a5274	-0.03377004
3	0x3ceaf676	0.028681975
4	0x3bdd4493	0.0067525594
5	0x3c13d1b2	0.009022163
6	0xbbc58cea	-0.006028761
7	0xbc54b292	-0.012982028
8	0xbcdddbb0	-0.027082294
9	0x3b8bc2ef	0.0042651813
10	0xba09b037	-0.00052523933
11	0xbd04bc1a	-0.03240595
12	0x3d0b3423	0.03398527
13	0x3d117f51	0.03552181
14	0xbcfc6345	-0.030809054
15	0x3ce517ce	0.027965453
16	0xbc4491a4	-0.011997614
17	0x3c3a636c	0.011376243
18	0x3b3cd61b	0.002881414
19	0xbc982e99	-0.018576907
20	0x3ca2f878	0.01989387
21	0x3d156acf	0.036478814
22	0x3c79fe3b	0.015258367
23	0xbca7b1ed	-0.020470584
24	0xbcfcc1f0	-0.030854195
25	0xbc79add3	-0.015239197
26	0x3ca0c7ba	0.019626487
27	0x3bb6e492	0.005581447
28	0xbc09eb59	-0.008417928
29	0xbcf00cc7	-0.029302968
30	0x3d0d42e6	0.034487627
31	0x3c22328c	0.009899747
32	0xbc97d8df	-0.01853603
33	0x3bd25e50	0.0064199343
34	0x3cb0fc18	0.021604583
35	0x3ba0ad8c	0.004903501
36	0x3cba9b7a	0.022779215
37	0x3c535e9e	0.012900976
38	0xb94e7442	-0.00019689
39	0x3c8bc839	0.017063247
40	0x3d046892	0.03232629
41	0x3cf9c23b	0.030488124
42	0xbb28018d	-0.002563569
43	0xbcffba7e	-0.031216856
44	0xbd0dd83b	-0.03463004
45	0xbc96bf1e	-0.018401679
46	0x3c8e9573	0.017405247
47	0x3ce59850	0.02802673
48	0xbb1518ac	-0.0022750301
49	0xbc60c06e	-0.013717754
50	0x3d142897	0.036171522
51	0xbc247d38	-0.01003962
52	0x3ce70931	0.028202625
53	0xbc1d369a	-0.009595538
54	0xbcfa82c6	-0.030579936
55	0x3ca2c7ee	0.019870725
56	0x3d05b8cb	0.032646935
57	0x3bdb50ed	0.0066929967
58	0x3c5bf2c9	0.013424584
59	0x3c8cf849	0.017208235
60	0xba08f2f4	-0.0005224191
61	0xbc2b2775	-0.010446419
62	0xba82398a	-0.0009935361
63	0xbc0b38d8	-0.008497439
64	0xbd103f8f	-0.035216864
65	0xbcd98661	-0.026553335
66	0xbcecf92e	-0.028927412
67	0xbbaa20f0	-0.0051919147
68	0x3c9227fb	0.01784133
69	0x3c381ac5	0.011236851
70	0xbcc47005	-0.023979196
71	0xbb777eee	-0.0037764865
72	0xbad00ee2	-0.0015873576
73	0x3c19b8fd	0.009382484
74	0x3c6e26d8	0.014535628
75	0x3d00cfb6	0.03144809
76	0x3ce60466	0.02807827
77	0xbcba45f9	-0.022738444
78	0xbcd6c628	-0.026217535
79	0xbae77079	-0.0017657421
80	0x3bb9d4de	0.0056711277
81	0x3c4f034c	0.012635063
82	0xbb55ed6f	-0.0032642742
83	0xbcaaa641	-0.02083123
84	0xbb901850	-0.0043974295
85	0xbbc2662c	-0.00593259
86	0xbcc808ba	-0.024418224
87	0xbcb5a93f	-0.02217543
88	0xbc2e57b0	-0.0106410235
89	0xbbe8c8d2	-0.007104018
90	0x3af09369	0.0018354479
91	0xbcd20cc1	-0.025640847
92	0x3cf55033	0.029945469
93	0x3cb6ba48	0.022305623
94	0xbd0dba4a	-0.034601487
95	0x3b017e52	0.001975913
96	0xbb57f92c	-0.0032954914
97	0x3cbda31c	0.023149066
98	0xbbb8c567	-0.0056387666
99	0x3d126587	0.035741355
100	0x3cc62bc1	0.024190785
101	0xbc637c10	-0.013884559
102	0x3cc8e401	0.024522783
103	0xbcd76f89	-0.026298301
104	0xbcf6d1c1	-0.030129315
105	0x3d024306	0.0318022
106	0x3c294dc2	0.01033348
107	0xbc352fe3	-0.01105878
108	0xbb455e44	-0.0030116
109	0x3ca5b054	0.020225681
110	0x3bbca1a3	0.0057565733
111	0x3ca5e077	0.020248635
112	0xbce1ad55	-0.027548471
113	0x3cfc403d	0.03079235
114	0x3ce707d3	0.028201973
115	0x3d04682e	0.032325916
116	0xbcf89b9a	-0.030347634
117	0xbd0652ca	-0.032793798
118	0xbcb501a5	-0.02209551
119	0x3d0fdb5d	0.03512131
120	0x3c8a048c	0.016847871
121	0x3cebcd42	0.028784398
122	0x3cbdc5e6	0.023165654
123	0xbcf1ca84	-0.029515512
124	0xbd07547a	-0.033039548
125	0x3bdacbf0	0.0066771433
126	0xbc8d5d98	-0.017256543
127	0x3ce9cba7	0.028539492
128	0xbbd4b570	-0.0064913556
129	0xbcb87389	-0.022516029
130	0xbd01d835	-0.03170033
131	0xbd08f84a	-0.033439912
132	0xba7f64a3	-0.0009742474
133	0xbd06f87c	-0.032951817
134	0xbc0ec401	-0.008713723
135	0xbc36d427	-0.0111589795
136	0xbcfce6ce	-0.030871775
137	0xbc07132a	-0.008244315
138	0x3aca5e16	0.0015439417
139	0x3bd30c33	0.0064406632
140	0xbceae8ad	-0.028675402
141	0x3c9fe85b	0.019519975
142	0xbc421342	-0.011845412
143	0x3c368edf	0.011142462
144	0xbc12d1fe	-0.008961199
145	0xbb04249d	-0.0020163425
146	0xbcd8c02f	-0.026458828
147	0xbc9f79c5	-0.019467244
148	0xbcfc1825	-0.030773232
149	0xbcdecd2b	-0.027197441
150	0x3c1ed365	0.009693955
151	0xbccbffa8	-0.02490218
152	0x3c8b2d6b	0.01698943
153	0xbc4fb02a	-0.012676278
154	0xbc4bf0e9	-0.012447574
155	0xbc7f92ed	-0.015598995
156	0xbd0942cb	-0.033510964
157	0xbd075a91	-0.033045355
158	0x3d0564c1	0.03256679
159	0xbc81cafa	-0.015843857
160	0xbc9c6781	-0.019092323
161	0xbcafd2aa	-0.021462757
162	0x3d010190	0.03149563
163	0x3cd81694	0.026377954
164	0xbc6a61f6	-0.014305582
165	0xbcbf2e9a	-0.023337651
166	0xbd08f705	-0.0334387
167	0xbcf126e0	-0.029437482
168	0xbc1f7e83	-0.009734753
169	0xbc8fab81	-0.017537834
170	0x3c9df064	0.019279666
171	0xbb15ed79	-0.002287714
172	0xbd020d6e	-0.03175109
173	0xbb79cc91	-0.0038116316
174	0xbcb051e1	-0.021523418
175	0xbc64d792	-0.013967412
176	0x3bc43a4e	0.005988396
177	0x3cc2e171	0.02378914
178	0xbcfcc0cd	-0.030853653
179	0x3bba182d	0.0056791515
180	0x3cac2c9a	0.021017361
181	0x3d0e9052	0.034805603
182	0xbcdd7353	-0.02703253
183	0x3bc0a935	0.005879546
184	0x3ced9475	0.029001454
185	0x3af5051a	0.0018693537
186	0x3d086cb2	0.033306785
187	0x3c1067ba	0.008813793
188	0x3d0c6daf	0.03428429
189	0x3ccda55c	0.025103264
190	0x3c94d818	0.018169448
191	0x3c831ae1	0.016004028
192	0x3d0a6e02	0.033796318
193	0xbcd9e3f1	-0.026597949
194	0x3c98c173	0.018646931
195	0x3b8ed7cc	0.004359221
196	0xbcf22a17	-0.029561086
197	0x3c936729	0.017993527
198	0x3ca1000b	0.01965334
199	0x3cb8de44	0.022566922
200	0xbc7b82c5	-0.015351002
201	0x3d027a26	0.03185477
202	0xbc7ce1f1	-0.015434728
203	0xbbbf1ab2	-0.0058320398
204	0x3beabff0	0.007163994
205	0xba912e67	-0.0011076451
206	0x3cda6442	0.026659135
207	0xbc52d9b1	-0.0128692845
208	0x3a8c5280	0.0010705739
209	0xbc7f5c2f	-0.015585943
210	0x3ce52795	0.027972976
211	0xbcd62c03	-0.026144033
212	0x3b2f000a	0.0026702904
213	0x3c9cf87d	0.019161457
214	0xbd07dfb2	-0.033172317
215	0x3d0cfbb0	0.034419715
216	0xbce4602c	-0.02787789
217	0x3c8b92a7	0.017037703
218	0xbce51cce	-0.027967837
219	0xbc79221b	-0.015205885
220	0x3a7c2add	0.0009619424
221	0x3d05ce66	0.03266754
222	0x3bd5ac02	0.006520749
223	0xbc8732e9	-0.016503768
224	0xbcf0fac9	-0.029416459
225	0xbbe95ba8	-0.007121522
226	0xbc591c8d	-0.013251436
227	0xbc117408	-0.008877762
228	0x3cafca3e	0.021458741
229	0xbd10185b	-0.035179477
230	0xbc381f35	-0.011237909
231	0xbd03f5b2	-0.032216735
232	0x3bb73bfb	0.005591867
233	0x3c8b1e96	0.016982358
234	0x3cb06a45	0.021535048
235	0xbc66ac25	-0.014079128
236	0x3c24fe80	0.010070443
237	0xbd02cd72	-0.03193421
238	0x3d11d552	0.03560383
239	0x3cd83d63	0.026396459
240	0x3bb0846e	0.0053868806
241	0xbd12c2cc	-0.035830304
242	0x3b3cfd2e	0.002883743
243	0x3c4dcdd7	0.012561283
244	0x3bc4e9c3	0.006009312
245	0x3beb0b02	0.007172943
246	0x3cfe596e	0.031048503
247	0xbd08a853	-0.03336365
248	0xbd11550e	-0.035481505
249	0x3bc09a09	0.0058777374
250	0x3c90f70a	0.017695922
251	0x3d06a74c	0.03287439
252	0x3aaa6071	0.0012998712
253	0xbd037ca3	-0.032101285
254	0x3cf8c09b	0.030365279
255	0x3bc0608c	0.0058708843

base_model.model.transformer.h.0.attn.c_attn.lora_B.weight f4 [2304, 4]
0	0x38fb9d23	0.00011997882
1	0x38f1a506	0.000115225135
2	0xb76a682a	-1.39717395e-05
3	0x3793879a	1.758691e-05
4	0xb8e1b3b5	-0.00010762309
5	0x39293c2f	0.00016139516
6	0x39461866	0.0001889184
7	0xb98b3085	-0.00026548296
8	0xb7f582dd	-2.9267214e-05
9	0x37e19a18	2.6893846e-05
10	0x383d6697	4.5156656e-05
11	0xb9369323	-0.00017411685
12	0xb912a419	-0.00013984776
13	0x384098c3	4.5918638e-05
14	0x36ba19e2	5.546245e-06
15	0xb86b20ec	-5.6059027e-05
16	0xb8951234	-7.108264e-05
17	0xb8d9947f	-0.00010375026
18	0xb91bc7fc	-0.00014856452
19	0xb90255c8	-0.00012429722
20	0xb88dca9e	-6.761144e-05
21	0x3881e637	6.19408e-05
22	0x394e09b1	0.00019649301
23	0x34d21aa6	3.9134937e-07
24	0xb8a71ff8	-7.969135e-05
25	0x38d43d99	0.00010120421
26	0x39684b51	0.00022153302
27	0xb85d9ed5	-5.283843e-05
28	0xb921f477	-0.00015445227
29	0x397b1481	0.00023944864
30	0x395bbc0e	0.00020955523
31	0xb8bbad73	-8.949162e-05
32	0xb87ff76a	-6.102716e-05
33	0xb75b6b41	-1.3078389e-05
34	0xb9151a86	-0.00014219628
35	0x3914a10c	0.00014174375
36	0xb8fbb4ee	-0.000120023135
37	0xb93804d2	-0.00017549403
38	0xb8af84be	-8.3693754e-05
39	0x3918e2ba	0.00014580312
40	0xb79e0049	-1.88352e-05
41	0x35699c44	8.702666e-07
42	0x38e6e9c0	0.00011010794
43	0x3986d800	0.00025719404
44	0x3939bf2b	0.0001771419
45	0x39709abc	0.00022945827
46	0x3932c08c	0.00017047132
47	0xb98a9de4	-0.0002643905
48	0xb9802820	-0.00024443958
49	0xb9058755	-0.00012734284
50	0x388bfbea	6.674959e-05
51	0xb63bdc09	-2.7993249e-06
52	0x38cd67e0	9.79451e-05
53	0x39480ab5	0.00019077475
54	0xb81cd699	-3.7393158e-05
55	0xb90465b0	-0.00012626383
56	0x38bdb6d2	9.046275e-05
57	0x399913ca	0.00029197178
58	0x39d4028e	0.00040437694
59	0xb936e347	-0.0001744154
60	0xb86fc31d	-5.7163754e-05
61	0x39770d32	0.00023560671
62	0x39847ca5	0.0002526987
63	0xb97a1892	-0.00023851011
64	0x3924e14a	0.00015724186
65	0xb8b7fd04	-8.773248e-05
66	0x377b4f4a	1.4979227e-05
67	0xb8d2873d	-0.000100387704
68	0x3937acc9	0.00017516607
69	0x37eeb934	2.8458053e-05
70	0xb7d81a81	-2.5761548e-05
71	0xb84af4a3	-4.838839e-05
72	0xb88c7d90	-6.699108e-05
73	0x391350a3	0.00014049052
74	0x38e10085	0.00010728933
75	0xb93e5f7b	-0.00018155381
76	0x38e954b7	0.00011126085
77	0xb915e072	-0.0001429336
78	0xb934e4f7	-0.00017251434
79	0xb805d7cc	-3.1910648e-05
80	0x391b833e	0.00014830843
81	0x38d697f0	0.00010232616
82	0xb842e45d	-4.6465884e-05
83	0x397b8ad8	0.00023988949
84	0x39b60af0	0.00034721894
85	0xb8a7ac0d	-7.9952275e-05
86	0xb9859865	-0.0002548128
87	0x36990187	4.559933e-06
88	0x38f169b1	0.00011511462
89	0x397a9fa2	0.00023901326
90	0xb8a78fef	-7.98999e-05
91	0xb9715b71	-0.00023017616
92	0xb91711be	-0.00014407092
93	0xb8d05c95	-9.935458e-05
94	0xb99db185	-0.00030077636
95	0xb9040e91	-0.00012593927
96	0xb8504f17	-4.9664723e-05
97	0xb9390b74	-0.00017647241
98	0xb8ead6c8	-0.000111979956
99	0xb808e43d	-3.263749e-05
100	0xb92f208d	-0.00016701427
101	0xb8f4fcd8	-0.000116819225
102	0xb9072e58	-0.00012891868
103	0x38a95737	8.074793e-05
104	0x380813ad	3.244325e-05
105	0x393ec006	0.00018191346
106	0x38c9f2d6	9.6296586e-05
107	0xb73a4067	-1.1101459e-05
108	0xb9bbf5f4	-0.0003585067
109	0x3948ad69	0.00019138087
110	0x39230356	0.00015546134
111	0xb7d16eff	-2.4966428e-05
112	0xb8736c3c	-5.8036516e-05
113	0xb8e08f09	-0.00010707795
114	0x38bbe976	8.96034e-05
115	0xb89c865c	-7.463686e-05
116	0x3962436e	0.00021578159
117	0xb8b24e19	-8.502248e-05
118	0x3760f63f	1.3408774e-05
119	0x38ed61ec	0.0001131928
120	0x38db7f40	0.00010466436
121	0xb92868f7	-0.00016060831
122	0xb97ff893	-0.00024411296
123	0x39a6a063	0.00031781485
124	0x38fd432e	0.00012076493
125	0xb7670f0a	-1.37721745e-05
126	0xb78c6f83	-1.6741227e-05
127	0x394d0afe	0.00019554418
128	0x3926df0a	0.00015914082
129	0xb91fec26	-0.00015251394
130	0x38641b77	5.4385015e-05
131	0x39736194	0.00023210637
132	0xb8d0a3d7	-9.9487304e-05
133	0xb6e33d51	-6.7722654e-06
134	0xb826c958	-3.9765e-05
135	0x38cf2a0a	9.8783596e-05
136	0xb8a072e1	-7.6507924e-05
137	0xb931b545	-0.00016947564
138	0xb751638f	-1.2480551e-05
139	0xb8c4a382	-9.376464e-05
140	0xb8bae5de	-8.911987e-05
141	0x3794b2c7	1.7726225e-05
142	0x3828454b	4.0118855e-05
143	0xb917b0ca	-0.00014466341
144	0x38a62aca	7.923467e-05
145	0x3910af45	0.00013798203
146	0x393a348d	0.00017757919
147	0xb942d50d	-0.0001858065
148	0x38ca38ee	9.6427146e-05
149	0x38d8b256	0.000103329
150	0xb84d252d	-4.891043e-05
151	0xb8ed5b62	-0.00011318062
152	0xb938b8c0	-0.00017616432
153	0x39058f01	0.00012737142
154	0xb905598e	-0.0001271723
155	0xb8fc2592	-0.000120232944
156	0x37973093	1.8023222e-05
157	0xb868ffb6	-5.555126e-05
158	0x38f5d621	0.00011722395
159	0xb98bba00	-0.00026650727
160	0x37226ba0	9.681011e-06
161	0x389d50c9	7.501391e-05
162	0x385e6c9b	5.303007e-05
163	0xb87d547a	-6.0398575e-05
164	0xb898b2cf	-7.2812305e-05
165	0xb82113f2	-3.8403967e-05
166	0x37a3e6ce	1.9538591e-05
167	0xb8bb5d55	-8.934239e-05
168	0xb90bb231	-0.00013322454
169	0xb9073913	-0.00012895865
170	0xb901756a	-0.00012346139
171	0x3909fe1f	0.00013160006
172	0x3869972b	5.5692315e-05
173	0xb8400d41	-4.578871e-05
174	0x38766629	5.8746115e-05
175	0xb8ff6bde	-0.00012179439
176	0xb888a154	-6.515035e-05
177	0xb7339983	-1.0704974e-05
178	0x398bba90	0.00026651146
179	0x39006a6a	0.00012246674
180	0x35d6ad95	1.5994761e-06
181	0x3969db27	0.00022302252
182	0x37981882	1.8131224e-05
183	0x38ce39ee	9.833636e-05
184	0x38a64ac2	7.9294216e-05
185	0x37df8416	2.6645179e-05
186	0x39065c13	0.00012813536
187	0xb7628f64	-1.3504035e-05
188	0x39bd5ff9	0.00036120394
189	0xb93d09f6	-0.00018028155
190	0xb87346d9	-5.8001697e-05
191	0x38ff05c7	0.00012160424
192	0xb7e1723b	-2.6875283e-05
193	0xb84c4f7e	-4.8711423e-05
194	0xb90537ac	-0.00012704608
195	0x3818dda3	3.644604e-05
196	0xb90cdd1c	-0.0001343381
197	0x3841cbc3	4.6204554e-05
198	0x38c02f31	9.1640635e-05
199	0xb8559a62	-5.0926938e-05
200	0xb8b352b2	-8.550788e-05
201	0x391f6467	0.00015200824
202	0x3909f304	0.00013155869
203	0x37fa1291	2.9810968e-05
204	0xb72499df	-9.810988e-06
205	0x387174c7	5.7567635e-05
206	0xb78bd313	-1.666838e-05
207	0xb8d7c548	-0.000102887454
208	0xb86987a0	-5.567784e-05
209	0x368ef77d	4.260741e-06
210	0x3971d7c9	0.00023063937
211	0xb8f857ee	-0.0001184194
212	0xb90be093	-0.00013339733
213	0x38e4578a	0.000108881926
214	0x390ba9d8	0.00013319345
215	0x39327b92	0.00017021436
216	0x37d1c783	2.5007646e-05
217	0xb820f52f	-3.8375318e-05
218	0x38876c34	6.457456e-05
219	0xb94ac81a	-0.00019338765
220	0x36713b27	3.594623e-06
221	0x3881f583	6.1969295e-05
222	0x38af3359	8.3542145e-05
223	0xb92fff0e	-0.00016784316
224	0x395735bc	0.00020524015
225	0x38a830e4	8.019971e-05
226	0xb8de0886	-0.000105873725
227	0x3881df2b	6.1927676e-05
228	0xb94aba4f	-0.00019333627
229	0xb8980986	-7.249699e-05
230	0x391d0267	0.00014973582
231	0xb92ed4eb	-0.00016673251
232	0xb9124644	-0.00013949821
233	0xb9990b5d	-0.000291909
234	0x353bcfd1	6.996534e-07
235	0x38f9ba62	0.00011907962
236	0xb9890c63	-0.00026139905
237	0x38b5ef9e	8.675385e-05
238	0x39232977	0.00015560338
239	0x3928d8e2	0.00016102524
240	0xb8dc2840	-0.000104979146
241	0xb823a69e	-3.9017403e-05
242	0xb929126d	-0.0001612396
243	0x38b4b75f	8.6172244e-05
244	0xb8ae2d93	-8.3054554e-05
245	0x39bbbd13	0.0003580829
246	0x38997809	7.317967e-05
247	0xb91f8366	-0.00015212371
248	0x3824299f	3.913941e-05
249	0xb926e652	-0.00015916795
250	0xb95f98d7	-0.00021323875
251	0x38ab46db	8.167113e-05
252	0xb966c3e4	-0.00022007484
253	0x38fcc5e1	0.00012053154
254	0x38c8fde3	9.584033e-05
255	0xb92fcc66	-0.00016765445

base_model.model.transformer.h.1.attn.c_attn.lora_A.weight f4 [4, 768]
0	0xbca0bdfa	-0.019621838
1	0x3d10b872	0.03533215
2	0xbd044aca	-0.032297887
3	0xbccdd209	-0.025124567
4	0x3b5c5c14	0.0033624219
5	0x3c108e89	0.0088230455
6	0xbc31a081	-0.01084149
7	0x3c821119	0.015877293
8	0x3ae6c602	0.0017606618
9	0xbcb8ef1a	-0.02257495
10	0xbc9acedc	-0.018897466
11	0x3ba5b61b	0.005057109
12	0xbbba46ba	-0.005684701
13	0x3cfb2726	0.030658316
14	0xbc779a51	-0.0151124755
15	0x3b90b7f6	0.004416461
16	0xbd0a3417	-0.033741083
17	0xbccb4bbf	-0.024816392
18	0x3c90a261	0.017655553
19	0x3d04b102	0.03239537
20	0x3c9cfd58	0.019163772
21	0xbc37c9cb	-0.011217545
22	0x3c711f6e	0.014716966
23	0x3c06a1ba	0.00821727
24	0x3b77ad8a	0.0037792646
25	0x3b111fd7	0.0022144222
26	0x3af9d02b	0.0019059231
27	0xbccefcff	-0.025267122
28	0x3c3b5b69	0.011435368
29	0x3c95e085	0.018295536
30	0xbb08c783	-0.0020870871
31	0xbcb6a2d4	-0.02229444
32	0x3c0c2dc4	0.008555833
33	0xbc7c7d24	-0.015410695
34	0xbc9ab988	-0.018887296
35	0xbcfbdb0c	-0.030744098
36	0xbcbffcab	-0.023435911
37	0xbba45b39	-0.0050157574
38	0xbbb286e9	-0.0054482115
39	0x3bad9ab4	0.005297983
40	0xbcc26f89	-0.023734825
41	0x3cc515b0	0.024058193
42	0x3cbb71ca	0.022881407
43	0x3bd3e3fd	0.0064663873
44	0xbcccb4d3	-0.024988567
45	0xbd020ab6	-0.031748496
46	0xbbf701f4	-0.0075380746
47	0xbd013331	-0.03154296
48	0xbaf49c3d	-0.0018662285
49	0x3c531edd	0.012885776
50	0x3bb3445e	0.0054707965
51	0x3d087d83	0.033322822
52	0x3b7472f5	0.0037299965
53	0xbcc2363a	-0.023707498
54	0xbc9c751b	-0.019098809
55	0x3ca1d10d	0.019753003
56	0xbcc799e3	-0.024365371
57	0xbad22b35	-0.0016034605
58	0x3cda0168	0.026611999
59	0x3cb277c4	0.021785624
60	0x3d0caea0	0.034346223
61	0x3c83b7c5	0.01607884
62	0x3c50fecd	0.012756062
63	0xbc1456b3	-0.009053874
64	0x3b632ddb	0.0034664783
65	0x3cf746d0	0.030185133
66	0xbc8ab88c	-0.016933702
67	0xbc8ed30e	-0.017434623
68	0xbce50756	-0.0279576
69	0xbb6abb24	-0.003581711
70	0x3b723466	0.0036957501
71	0x3b60a932	0.0034280536
72	0x3c5c746a	0.01345549
73	0xbbcfe510	-0.006344445
74	0x3d01e68c	0.031714007
75	0xbb5d47e0	-0.0033764765
76	0x3d0219ae	0.03176277
77	0x3caae8f5	0.020863036
78	0xbc93e6cd	-0.01805439
79	0xbd0bfd13	-0.034176897
80	0xbc030fae	-0.007999344
81	0x3c5ce972	0.013483392
82	0x3c823e10	0.015898734
83	0x3bbcf40c	0.0057663973
84	0x3c4fdefc	0.012687441
85	0xbbe384be	-0.0069433143
86	0x3d02a547	0.031895902
87	0xbc672caa	-0.01410977
88	0xbc0528fa	-0.008127445
89	0xb9d54db7	-0.00040684428
90	0x3ceb0ca2	0.028692547
91	0xbd04c110	-0.03241068
92	0xbcf93ef5	-0.030425528
93	0x3c9398ac	0.018017136
94	0x3c07b514	0.0082829185
95	0x3cb5b45b	0.022180727
96	0xbd0eca47	-0.034860875
97	0x3ccc61ff	0.024949072
98	0xbc6da177	-0.014503828
99	0x3c77fce3	0.0151359765
100	0x3cc93670	0.02456209
101	0xb9c8ead1	-0.00038321925
102	0xbbc0ab6c	-0.00587981
103	0x3a017fd0	0.0004940005
104	0x3cd67abd	0.026181573
105	0xbccf0e8c	-0.025275491
106	0xbc7199f9	-0.014746183
107	0x3d0ca67e	0.034338467
108	0xbc8f58e9	-0.01749845
109	0x3b8291d9	0.0039846716
110	0x3cccbdd0	0.024992853
111	0x39e9bd4e	0.00044582266
112	0xbd12a2e5	-0.03579988
113	0x3d066e02	0.032819755
114	0xbb6d5cdc	-0.0036218679
115	0x3c80ffec	0.015747033
116	0xbc4e64d2	-0.01259728
117	0x3af8576d	0.0018946953
118	0x3c979583	0.01850391
119	0xbc8ad5c6	-0.016947638
120	0x3d138c43	0.036022436
121	0xbbed8441	-0.007248432
122	0xbcface30	-0.030615896
123	0x3d042dfd	0.03227042
124	0x3c80f2c3	0.015740758
125	0xbcc54964	-0.024082847
126	0x3c16fed5	0.00921603
127	0x3b76b6cd	0.003764558
128	0xbb237844	-0.002494351
129	0xbce2a68a	-0.027667303
130	0x3c5bbe54	0.013412077
131	0xbd0c6dea	-0.03428451
132	0xbd0a0051	-0.033691708
133	0x3d0e36b1	0.034720127
134	0xbc944d45	-0.018103251
135	0x3b8d5cad	0.0043140263
136	0x3c5d2a6f	0.0134988865
137	0xbc5fa860	-0.013650984
138	0x3ca1d8a3	0.01975662
139	0xbca12e55	-0.019675413
140	0x3b5e992a	0.0033965805
141	0xbcad9e64	-0.02119369
142	0x3c8b004a	0.016967911
143	0x3cfcfb53	0.03088156
144	0xbd041ed6	-0.03225597
145	0x3cf2f005	0.029655466
146	0xbc9fa9f3	-0.019490218
147	0xbc245ba9	-0.010031619
148	0xbcf8b6fd	-0.030360693
149	0x3c96084a	0.0183145
150	0x3cf4cc9a	0.029882718
151	0x3c0c9858	0.008581243
152	0x3cdcaa49	0.026936667
153	0x3c9b3c5f	0.018949686
154	0x3d04603a	0.03231833
155	0x3cd10fc9	0.025520222
156	0xbc5531d3	-0.013012367
157	0xbd0c72f4	-0.034289315
158	0xbcb1c971	-0.0217025
159	0xbcf0750b	-0.029352685
160	0x3a3a2023	0.00071001257
161	0x3cea6508	0.028612629
162	0x3d0b8aad	0.0340678
163	0x3cb19e3e	0.021681901
164	0xbc358f63	-0.011081549
165	0xbd0eb914	-0.034844473
166	0x3cadd98a	0.021221895
167	0x3ce46732	0.027881239
168	0x3cdb4118	0.026764438
169	0x3bf0cbf7	0.0073485333
170	0xbc3b6d03	-0.011439565
171	0x3cf1168b	0.029429695
172	0x3c968aca	0.018376727
173	0x3c1b5785	0.0094813155
174	0xbcf7afd0	-0.030235201
175	0x3c3c02af	0.011475249
176	0xbc74dc44	-0.014945094
177	0x3b5aa0ff	0.0033360121
178	0xbd0d96af	-0.03456753
179	0x3bdbdb9f	0.0067095305
180	0xbadb4969	-0.0016730252
181	0xbcbb7a36	-0.022885423
182	0x3ce0d1ff	0.027443884
183	0xbd105dc3	-0.03524567
184	0xbb8609e9	-0.004090537
185	0xbc0a2e8b	-0.008433948
186	0x3ac065c6	0.0014678768
187	0xbcbb96c7	-0.022899045
188	0xbc72bd34	-0.014815617
189	0x3b06749f	0.002051629
190	0x3d02e64c	0.03195791
191	0x3d07c4fa	0.033146836
192	0xbbc4060d	-0.0059821666
193	0xbcf945b8	-0.030428752
194	0x3c9d3da3	0.01919443
195	0xbcc9ab72	-0.024617884
196	0xbd0e7222	-0.034776814
197	0xbcb8c081	-0.02255273
198	0xbc14714c	-0.009060215
199	0x3bd6d288	0.006555859
200	0xbcf0af22	-0.029380385
201	0xbbf3cf0d	-0.007440454
202	0xbbe77139	-0.0070630577
203	0x3ca8e91e	0.020618971
204	0xbc8f78d5	-0.017513672
205	0xbca8a160	-0.020584762
206	0x3cf1f7c2	0.029537085
207	0xbc805799	-0.01566677
208	0x3ca46151	0.020065935
209	0xbcaea9f2	-0.02132127
210	0x3cfc7c25	0.030820915
211	0x3cf3c3aa	0.029756386
212	0xbc4832e5	-0.012219165
213	0xbb839d1d	-0.004016532
214	0x3c491b42	0.012274565
215	0xbcaae510	-0.020861179
216	0x3cff7f6f	0.031188695
217	0x3d11613e	0.035493128
218	0xbcba45ab	-0.022738298
219	0x3b5a932e	0.0033351886
220	0x3c0428cb	0.008066366
221	0xbcf0a78f	-0.029376773
222	0x3cd3eece	0.025870707
223	0xbd077fc9	-0.03308085
224	0xbc93e663	-0.018054193
225	0xbc35d8b5	-0.01109903
226	0xbcd9f79c	-0.026607327
227	0x3d13dc0e	0.036098532
228	0xbc818bad	-0.015813673
229	0xbb3c6c4a	-0.0028751069
230	0x3c518c0a	0.012789736
231	0x3ba6b309	0.0050872606
232	0x3b13c202	0.0022546058
233	0x3d115e7c	0.035490498
234	0x3c1ca0ef	0.009559854
235	0xbb72d349	-0.0037052205
236	0xbcd61eb9	-0.026137697
237	0x3c968a6b	0.01837655
238	0x3d08a288	0.033358127
239	0x3c295997	0.010336301
240	0x3b84ed62	0.0040566185
241	0x3c159521	0.009129793
242	0xbcf19d51	-0.02949396
243	0xbc41b6c0	-0.011823356
244	0x3caf682d	0.02141198
245	0x3d06d14f	0.032914456
246	0x3bc07f6d	0.0058745653
247	0x3c02b106	0.007976776
248	0xbd0f77d2	-0.03502638
249	0xbc003230	-0.007824466
250	0xb922545f	-0.00015480955
251	0xbd019bc4	-0.03164269
252	0xbced32a5	-0.028954813
253	0x3bdb4cb1	0.006692492
254	0xbc4dbeae	-0.012557669
255	0xbd105f8b	-0.035247367

base_model.model.transformer.h.1.attn.c_attn.lora_B.weight f4 [2304, 4]
0	0x38a3131c	7.776005e-05
1	0xb90f450c	-0.00013663265
2	0x391f9550	0.00015219045
3	0x38b10cf9	8.442434e-05
4	0x396a4ba7	0.00022344162
5	0xb868d2e9	-5.5509536e-05
6	0xb87b397c	-5.98966e-05
7	0x39759dab	0.00023423757
8	0x38067bab	3.2063264e-05
9	0xb709c282	-8.211124e-06
10	0xb7436277	-1.1645831e-05
11	0x38eba13d	0.00011235706
12	0xb9a9573a	-0.0003229918
13	0xb8d2c7d7	-0.000100508034
14	0xb8123bbc	-3.4864745e-05
15	0xb881442c	-6.163897e-05
16	0xb8603e77	-5.3463937e-05
17	0xb9120459	-0.00013925265
18	0xb8beb452	-9.093493e-05
19	0x38d6aea6	0.00010236846
20	0x395d8a21	0.0002112766
21	0xb896dec4	-7.194051e-05
22	0x392bc673	0.00016381759
23	0x39988242	0.0002908875
24	0xb9394798	-0.00017669646
25	0x393a8f52	0.00017791733
26	0xb907ae46	-0.00012939525
27	0xb9babee2	-0.00035618903
28	0xb88e3c88	-6.7823625e-05
29	0xb8bfc71e	-9.144678e-05
30	0xb984c543	-0.00025323973
31	0x386b5e2c	5.611607e-05
32	0xb92d337d	-0.00016517747
33	0x393d90a0	0.00018078322
34	0xb986dc09	-0.0002572241
35	0xb9904106	-0.00027514267
36	0xb7d61f41	-2.5525342e-05
37	0xb9b2478b	-0.0003400411
38	0x382cbabe	4.1181913e-05
39	0x388d98d9	6.751874e-05
40	0xb8f837db	-0.000118359654
41	0xb8d7f5f5	-0.00010297812
42	0x386d14c1	5.6524532e-05
43	0xb8bb450f	-8.929718e-05
44	0x3958ef4f	0.00020688515
45	0x36df71cc	6.6591656e-06
46	0xb887fc1c	-6.484261e-05
47	0xb77be04f	-1.5012992e-05
48	0x3909ca83	0.0001314078
49	0xb7c9a311	-2.4037001e-05
50	0x39724695	0.00023105212
51	0x390ff2f4	0.0001372805
52	0x378ad14c	1.6548343e-05
53	0xb7bab50c	-2.2257234e-05
54	0x3910bddd	0.0001380364
55	0x37b2bb91	2.1306596e-05
56	0xb570a251	-8.964317e-07
57	0xb845fb99	-4.720278e-05
58	0xb94124f0	-0.00018419675
59	0xb8138c87	-3.5178407e-05
60	0xb7241a04	-9.781219e-06
61	0x3932fecc	0.00017070322
62	0xb9013634	-0.00012322591
63	0xb890db3d	-6.9072914e-05
64	0xb75f225e	-1.32998375e-05
65	0x3823324f	3.8909082e-05
66	0xb8c8d4e8	-9.5764e-05
67	0xb9305001	-0.00016814472
68	0xb96c8a36	-0.00022558201
69	0x38a4a334	7.850528e-05
70	0xb80cff9f	-3.3616667e-05
71	0xb9891c5a	-0.000261518
72	0x39642916	0.0002175908
73	0x388d891c	6.7489425e-05
74	0x396c0b87	0.00022511008
75	0x393bfdd1	0.00017928264
76	0x391aaa44	0.00014750013
77	0xb919c1d7	-0.00014663428
78	0x38405da0	4.5863562e-05
79	0x393375fa	0.0001711472
80	0x387128ff	5.7497058e-05
81	0x37ccbddb	2.4407103e-05
82	0xb785d534	-1.5954116e-05
83	0xb6b9874c	-5.5291803e-06
84	0x37e2e885	2.7049575e-05
85	0xb928b9af	-0.00016090901
86	0xb91a0bcf	-0.00014690984
87	0x38892512	6.539574e-05
88	0x384b030b	4.8401806e-05
89	0xb92250fb	-0.00015479692
90	0xb7a798cc	-1.9979103e-05
91	0x390140c6	0.00012326529
92	0xb88acf53	-6.61897e-05
93	0xb8281563	-4.007424e-05
94	0xb7db1d0e	-2.6120364e-05
95	0xb8ca8ad4	-9.657969e-05
96	0xb94b21d8	-0.00019372196
97	0x385f7657	5.3277556e-05
98	0xb88bd63c	-6.667941e-05
99	0xb8d9bfa8	-0.00010383065
100	0x37899929	1.6402993e-05
101	0xb8d1d3a8	-0.00010005321
102	0xb8306991	-4.2059986e-05
103	0x38bd6f43	9.0329464e-05
104	0xb8365537	-4.3471544e-05
105	0x3906c384	0.00012852071
106	0x38d9181c	0.00010351857
107	0xb83c933c	-4.4959816e-05
108	0x3960d53c	0.0002144174
109	0x37750a5a	1.4605548e-05
110	0x371cc29b	9.343635e-06
111	0x38c3e4bb	9.340929e-05
112	0x39253f33	0.0001575917
113	0x392a74ec	0.0001625602
114	0x38a55337	7.883313e-05
115	0xb77c7a16	-1.5048796e-05
116	0xb8ae2597	-8.303968e-05
117	0xb8f31476	-0.00011590954
118	0xb96b2978	-0.00022426795
119	0xb6cc0f1d	-6.081433e-06
120	0xb84ac4b6	-4.8343754e-05
121	0xb801be80	-3.0933414e-05
122	0x3891a55a	6.944938e-05
123	0x38aa0af0	8.108269e-05
124	0xb96b32e0	-0.00022430299
125	0x3890d28b	6.905672e-05
126	0xb49873bc	-2.8396414e-07
127	0xb99e24db	-0.00030163568
128	0x39162cfd	0.00014321874
129	0xb823f055	-3.9086055e-05
130	0x3943dd69	0.00018679131
131	0xb7d24ef8	-2.5070723e-05
132	0xb797b7a6	-1.808612e-05
133	0xb89d8a20	-7.512071e-05
134	0x39133623	0.0001403918
135	0xb990248d	-0.00027493053
136	0xb91e8bcf	-0.00015120137
137	0x37cf07ce	2.4679957e-05
138	0xb942d069	-0.0001857892
139	0xb9398a39	-0.00017694467
140	0x36e6e942	6.881689e-06
141	0xb8110642	-3.4576522e-05
142	0x38b01904	8.3969935e-05
143	0xb89c404e	-7.450637e-05
144	0xb91cae80	-0.00014942326
145	0x36f94e64	7.429904e-06
146	0x38749f9d	5.8322785e-05
147	0xb9c8b8d7	-0.0003828469
148	0x38a8d9ce	8.0514335e-05
149	0xb7b8afc6	-2.201636e-05
150	0xb8eede16	-0.00011390091
151	0x38d9d889	0.00010387699
152	0xb756f874	-1.28132415e-05
153	0x38361914	4.3415537e-05
154	0x38c118cb	9.207575e-05
155	0xb91a322f	-0.0001470528
156	0x37357782	1.0816266e-05
157	0xb932516a	-0.00017005732
158	0xb8ac792a	-8.224168e-05
159	0x3902cd29	0.00012474194
160	0x394aaa04	0.00019327557
161	0xb8dac418	-0.00010431575
162	0xb96caba4	-0.00022570655
163	0x3983bef9	0.00025128553
164	0x382d9d00	4.1392632e-05
165	0x388f68c4	6.8382855e-05
166	0x39013d41	0.00012325218
167	0xb912e840	-0.00014010165
168	0xb88f796f	-6.84139e-05
169	0x387a7976	5.9717764e-05
170	0x3865ab34	5.47573e-05
171	0xb8d0f4e7	-9.9638295e-05
172	0x39911a68	0.0002767623
173	0x3903ce37	0.00012569955
174	0xb8c25e77	-9.268236e-05
175	0x393c440b	0.00017954425
176	0x373d81b7	1.1295479e-05
177	0x39b4a23b	0.00034453147
178	0xb880be40	-6.1389524e-05
179	0xb908bbed	-0.00013039979
180	0x39393f20	0.00017666491
181	0x38b0710e	8.413392e-05
182	0x3982aa76	0.00024922536
183	0x38b6c166	8.7144595e-05
184	0xb816b293	-3.5929097e-05
185	0x3908fb48	0.0001306358
186	0x378d8b52	1.6873386e-05
187	0x39210fff	0.00015360116
188	0x37c1f69d	2.3122231e-05
189	0xb82a2395	-4.0564297e-05
190	0x36ff6978	7.6118704e-06
191	0xb7ee4b50	-2.8406881e-05
192	0xb92fd513	-0.00016768677
193	0xb8c6bc8b	-9.4764946e-05
194	0xb87f6eb6	-6.0899845e-05
195	0xb9102f08	-0.0001375043
196	0x394c9d37	0.00019513523
197	0xb74cba4a	-1.2202721e-05
198	0x388157c9	6.1675506e-05
199	0xb764c993	-1.3636792e-05
200	0x396b36c9	0.00022431755
201	0xb8fee74d	-0.00012154747
202	0x3678527f	3.7002899e-06
203	0x398cd0e6	0.00026858522
204	0x38b24b53	8.501732e-05
205	0xb8d7656e	-0.00010270892
206	0x390f0c9a	0.00013642237
207	0x38ab9719	8.1820595e-05
208	0xb9dc4951	-0.00042016295
209	0x3987c4d5	0.00025895858
210	0xb8489ddb	-4.783073e-05
211	0xba053b0d	-0.00050823466
212	0x383fbc27	4.571318e-05
213	0xb8fdb4ab	-0.00012097632
214	0xb8796fce	-5.9470352e-05
215	0x395ccb73	0.00021056626
216	0xb90076d2	-0.00012251295
217	0xb824e067	-3.9309638e-05
218	0xb81fc23f	-3.808946e-05
219	0xb9873b98	-0.00025793607
220	0xb9941b8d	-0.00028249287
221	0x39252f18	0.0001575317
222	0xb94bf967	-0.00019452498
223	0xb85a67ea	-5.2072028e-05
224	0xb867e81a	-5.5290853e-05
225	0x3917b3dc	0.00014467485
226	0xb7bd12f7	-2.2539387e-05
227	0xb924a675	-0.00015702269
228	0xb89276ad	-6.9839276e-05
229	0x366d6d5e	3.5379412e-06
230	0xb9094d1f	-0.00013094068
231	0xb8c85937	-9.553361e-05
232	0x37115ed4	8.664752e-06
233	0x38dde2d9	0.00010580355
234	0xb93f515e	-0.00018245491
235	0x396747a3	0.00022056563
236	0x384c0b93	4.864817e-05
237	0xb95d47fa	-0.00021103016
238	0xb9077b8b	-0.00012920627
239	0x3896ac0a	7.184602e-05
240	0xb893781b	-7.0318776e-05
241	0x37dce9c5	2.6334901e-05
242	0x390bf409	0.00013346983
243	0xb908896e	-0.00013021167
244	0xb96e7e11	-0.00022744412
245	0x3934a287	0.00017226684
246	0xb8482fd9	-4.7728277e-05
247	0xb9abc747	-0.00032764135
248	0x3922327e	0.00015468334
249	0xb9354381	-0.00017286652
250	0xb90efa6d	-0.00013635466
251	0x39a2d4c7	0.0003105758
252	0x394152af	0.00018436716
253	0x3922bebb	0.00015520577
254	0xb87a0817	-5.961218e-05
255	0x37527996	1.2545284e-05

base_model.model.transformer.h.10.attn.c_attn.lora_A.weight f4 [4, 768]
0	0xbafe832b	-0.0019417753
1	0xbc8c15d1	-0.017100247
2	0x3cd08e8f	0.025458602
3	0xbcf57d19	-0.029966878
4	0x3ccd1c2e	0.025037851
5	0xbc629758	-0.0138300285
6	0x3c2a68c9	0.010400959
7	0x3c998f0c	0.018744968
8	0x3cb8820f	0.022522954
9	0xbcc1d847	-0.0236627
10	0x3c006cc0	0.007838428
11	0xb93abbba	-0.00017808276
12	0xbc624f0d	-0.0138127925
13	0xbcc80c29	-0.02441986
14	0xbca79a48	-0.02045931
15	0xbb85f0c2	-0.0040875385
16	0xbce46246	-0.027878892
17	0xbcd9ea02	-0.026600841
18	0xbc9623a1	-0.018327536
19	0xbcb38693	-0.021914756
20	0x3cb4eff8	0.022087082
21	0xbc95432e	-0.01822051
22	0x3cba038f	0.022706775
23	0xbce20bf2	-0.027593587
24	0x3cb046f4	0.021518208
25	0x3c7f5ece	0.015586568
26	0x3d04905d	0.032364238
27	0xbc99e63d	-0.018786544
28	0x3ccbb7d1	0.024867924
29	0x3b1474c4	0.0022652606
30	0x3c91b927	0.017788483
31	0x3c32a20f	0.010902896
32	0xbbd5e89b	-0.006527973
33	0x3b11dca9	0.0022256768
34	0x3c5823ed	0.013192159
35	0x3cd4b7a3	0.025966471
36	0xbbffabed	-0.0078024776
37	0x3c67c180	0.014145255
38	0xbcfc76f0	-0.030818433
39	0xbc32b523	-0.010907444
40	0xbca39e18	-0.019972846
41	0xbc80561f	-0.015666066
42	0x3c420273	0.011841404
43	0x3c17da9f	0.009268432
44	0x3cf4bad8	0.02987425
45	0x3d063810	0.03276831
46	0xb9c1d15b	-0.0003696781
47	0xbcd0d488	-0.025491968
48	0x3c01b5b6	0.007916858
49	0x3d0a9c41	0.03384042
50	0x3d0f9a1a	0.035059072
51	0x3c5ef7e6	0.013608908
52	0x3c9b55e3	0.018961852
53	0x3d011f08	0.031523734
54	0xbc53f2db	-0.012936319
55	0xbd10ed0e	-0.035382323
56	0x3c7bb0c8	0.015361972
57	0x3cd74a28	0.026280478
58	0xbd0ae34f	-0.033908185
59	0xbb8cbb37	-0.0042947787
60	0xbc535ab9	-0.012900048
61	0xbca99598	-0.020701215
62	0x3ca58540	0.02020514
63	0x3c035e3f	0.0080180755
64	0x3cd92629	0.026507454
65	0xbcc1d8a9	-0.023662882
66	0x3b5c23df	0.0033590717
67	0x3c0f8116	0.008758804
68	0xbc152b80	-0.0091046095
69	0x3ced69ec	0.028981172
70	0x3c8d540f	0.017251996
71	0xbce75981	-0.028240921
72	0x3cdc2187	0.026871456
73	0x3ac61d51	0.0015114938
74	0x3ca24359	0.019807504
75	0x3b22001c	0.0024719303
76	0xba16ec99	-0.00057573017
77	0x3d12028c	0.03564696
78	0xbcf3b646	-0.02975
79	0xbcf59184	-0.029976614
80	0x3d1701e3	0.036867034
81	0x3b39fe36	0.0028380281
82	0x3bba6b4c	0.0056890603
83	0xbcfc7e3c	-0.030821912
84	0x3c49f382	0.012326123
85	0xbccbbd03	-0.024870401
86	0x3d08ab33	0.033366393
87	0xbcff8798	-0.031192586
88	0x3b653b76	0.0034978068
89	0xbcd9d7cb	-0.026592156
90	0x3d0d2eb3	0.034468364
91	0xbcbc5c5a	-0.022993255
92	0xbc40332a	-0.011730948
93	0x3af90231	0.0018997845
94	0x3cdb5804	0.026775368
95	0x3c6595bd	0.014012751
96	0xbc67db00	-0.014151335
97	0xbca6b0bc	-0.020347945
98	0x3b93dfad	0.004512748
99	0x3cffe0be	0.031235095
100	0x3cdc53a2	0.026895348
101	0xbcb6eeff	-0.02233076
102	0x3cdd2874	0.026996829
103	0x3d053fa1	0.032531384
104	0xbd049a12	-0.032373495
105	0xbb0ab078	-0.0021162312
106	0xbc8cccdf	-0.017187534
107	0xbc0d686e	-0.008630855
108	0xbbacfef4	-0.005279416
109	0x3c885999	0.016644286
110	0x3c63c169	0.013901093
111	0xbc91bfba	-0.017791618
112	0xbcff505d	-0.03116625
113	0xbc08bb6c	-0.008345466
114	0xbc5fa873	-0.013651001
115	0x3c8dc1b7	0.017304284
116	0xbc664b28	-0.014056005
117	0xbb2a3022	-0.002596863
118	0xbd0bdb59	-0.034144733
119	0x3b74e0e4	0.003736549
120	0xbc94d37c	-0.01816725
121	0xbcf920be	-0.03041112
122	0xbcf0f973	-0.029415822
123	0xbc551a1e	-0.013006715
124	0x3ca1b20d	0.019738222
125	0xbbc15550	-0.0059000626
126	0xbd020e78	-0.03175208
127	0x3d00ae18	0.03141603
128	0xbcedcdd1	-0.029028805
129	0xbcf6685e	-0.030079063
130	0x3cf82966	0.030293178
131	0xbb0362d2	-0.0020047915
132	0xbc436d2b	-0.011927883
133	0x3c2fb0ed	0.010723335
134	0x3cac9916	0.02106909
135	0xbd14bccb	-0.03631286
136	0x3cc9c39d	0.024629408
137	0x3b2cb150	0.0026350804
138	0x3c5bbaca	0.013411233
139	0x3c92b6af	0.017909376
140	0x3ac2f27b	0.001487329
141	0x3c6a3412	0.014294641
142	0xbcd173de	-0.025567945
143	0x3c7eae4c	0.015544485
144	0x3b59cf23	0.0033235035
145	0x3cae7fbf	0.021301148
146	0x3c44dea9	0.012015977
147	0x3c90a40a	0.017656345
148	0xbc489e55	-0.012244781
149	0x3b71d10f	0.003689829
150	0x3c070e52	0.00824316
151	0xbcf67010	-0.030082732
152	0x3cc95f40	0.024581552
153	0x3b9e7c8d	0.004836625
154	0xbcad79ff	-0.021176336
155	0xbcd98b18	-0.026555583
156	0xbb9886d7	-0.004654746
157	0xb9e4ca52	-0.0004363829
158	0x3a1fa5d8	0.00060900813
159	0x3b0d9df3	0.0021609038
160	0x3c776c4d	0.0151015045
161	0x3b3fe765	0.002928221
162	0x3b87b65c	0.004141612
163	0x3cb79f69	0.02241488
164	0x3b53bdd8	0.00323092
165	0x3d00da49	0.031458173
166	0xbba6e415	-0.0050931075
167	0x3ba20fbb	0.004945723
168	0x3d034bca	0.0320547
169	0x3b8f15b2	0.0043666
170	0x3cf6f75f	0.030147253
171	0x3bb0f542	0.0054003308
172	0x3cb57328	0.022149637
173	0x3ccd26c2	0.025042895
174	0xbc2df3df	-0.010617225
175	0x3cebfe4a	0.028807778
176	0x3d150718	0.03638372
177	0x3c166679	0.009179705
178	0xbccdac27	-0.025106503
179	0x39d01740	0.00039690174
180	0x3c832858	0.016010448
181	0xbd0ba204	-0.034090057
182	0xbcd762dc	-0.026292257
183	0xb9207b2f	-0.00015304679
184	0xbc2540f5	-0.010086288
185	0x3cf9550f	0.030436067
186	0xbcc9523b	-0.024575343
187	0x3d09621f	0.03354084
188	0xbce8d67b	-0.028422585
189	0xbbbcc883	-0.0057612075
190	0x3ce2ec96	0.027700704
191	0x3b984f56	0.0046481295
192	0x3d0b2d10	0.03397852
193	0xbc0bbc0f	-0.008528723
194	0x3cdc6fb6	0.026908737
195	0xbcd579a1	-0.026058974
196	0x3d135aee	0.03597539
197	0x3ccfa8b6	0.025349002
198	0x399eb7e5	0.0003027312
199	0x3cad6182	0.02116466
200	0xbc76067f	-0.015016197
201	0x3c80fb4b	0.015744826
202	0xbcea8e7c	-0.028632395
203	0x3d0f3845	0.034965772
204	0x3d1491ee	0.036271982
205	0xbc7786ba	-0.015107805
206	0xbc9ab6df	-0.018886028
207	0x3bce7df3	0.0063016354
208	0xbcf82f0a	-0.030295867
209	0x3c92319c	0.017845921
210	0x3c1653fa	0.009175295
211	0x3cbfc6a4	0.023410149
212	0xbcdcb1ba	-0.026940215
213	0xbc51de7d	-0.012809393
214	0x3d0199cd	0.031640816
215	0xbc856d14	-0.016287364
216	0xbc908f39	-0.017646419
217	0xbcbfc5c0	-0.023409724
218	0x3c44981e	0.011999158
219	0xbb8a8b21	-0.0042280112
220	0x3d04e325	0.032443184
221	0xbccc84a3	-0.02496559
222	0x3c8a6231	0.016892524
223	0x3cf01fc2	0.029312018
224	0xbc879025	-0.016548226
225	0xbd0c138b	-0.034198325
226	0x3cefe60c	0.0292845
227	0xbc37bae0	-0.011213988
228	0xbcea5f8e	-0.028610017
229	0xbca5b241	-0.0202266
230	0x3b61a0b0	0.0034428053
231	0xba010dfc	-0.00049230433
232	0x3ccf0178	0.025269255
233	0xbb1bf4de	-0.0023797075
234	0xbcc75446	-0.024332177
235	0x3bec4e09	0.007211451
236	0x3c253f6e	0.010085924
237	0xbc7d9515	-0.015477438
238	0xbcd5b62d	-0.026087845
239	0xbc53a7e0	-0.0129184425
240	0xbc4e560d	-0.012593758
241	0x3b727cc4	0.0037000636
242	0xbd015033	-0.031570625
243	0x3cf134de	0.029444154
244	0x3cf31b53	0.029676115
245	0xbb956773	-0.0045594512
246	0x3d0858a0	0.033287644
247	0x3cd6d350	0.026223809
248	0xbc0f151f	-0.008733063
249	0xb9edfa8b	-0.00045390832
250	0xbae278d3	-0.001727844
251	0xba868166	-0.0010261952
252	0x3c8af426	0.016962122
253	0x3cdd9fcf	0.027053742
254	0xbc9b2714	-0.018939532
255	0x3ce03206	0.027367603

base_model.model.transformer.h.10.attn.c_attn.lora_B.weight f4 [2304, 4]
0	0xba101695	-0.0005496529
1	0x3a242ac7	0.0006262478
2	0xb9fc287b	-0.00048095346
3	0x3a40ce77	0.00073549844
4	0x3918270a	0.00014510393
5	0xb99ebdd3	-0.00030277538
6	0x38b6e50c	8.7210996e-05
7	0xb8c0c81d	-9.1925474e-05
8	0xba219e40	-0.00061652437
9	0x39c6bbc7	0.00037905408
10	0xb99337cd	-0.000280796
11	0x3a25a11e	0.0006318259
12	0x3a50e20b	0.00079682533
13	0xba6b7292	-0.0008981611
14	0x3a4ba14c	0.00077678706
15	0xba720d15	-0.0009233517
16	0xba13b340	-0.00056343153
17	0x3a20a596	0.000612819
18	0xb9d76473	-0.00041082836
19	0x3a76ba82	0.0009411947
20	0x3a3f5758	0.0007299087
21	0xba14f742	-0.0005682596
22	0x3a084aba	0.00051991234
23	0xba5964d5	-0.0008292918
24	0x3a75f406	0.00093823706
25	0xba87a9c6	-0.0010350279
26	0x3a6cf2c7	0.0009038862
27	0xba901542	-0.0010992663
28	0xb98f8d21	-0.00027380235
29	0x38a48941	7.845695e-05
30	0xb8998909	-7.321133e-05
31	0x38700623	5.7226174e-05
32	0xba17f368	-0.0005796463
33	0x3a1387a6	0.0005627818
34	0xb9ecffda	-0.00045204052
35	0x3a2d1118	0.00066019734
36	0x38712844	5.7496378e-05
37	0x38d1a217	9.996088e-05
38	0xb93ede05	-0.00018202521
39	0x38fb3059	0.00011977618
40	0xba22b705	-0.00062070816
41	0x3a0e29dd	0.0005423108
42	0xb9dd6c41	-0.0004223306
43	0x3a253230	0.0006301729
44	0xba25f364	-0.00063305185
45	0x39e1e8c9	0.00043088783
46	0xb9e09983	-0.00042838985
47	0x3a1cd0e2	0.00059820537
48	0xba46ecd4	-0.0007588391
49	0x3a4dff5a	0.000785818
50	0xba38f37f	-0.0007055327
51	0x3a601ae6	0.000854893
52	0x3a02d7fd	0.0004991291
53	0xb96d6e78	-0.00022643234
54	0x399fde9a	0.00030492694
55	0xb9b266f5	-0.00034027515
56	0x3a5ce19d	0.0008425953
57	0xba6170e5	-0.00085998914
58	0x3a46f792	0.00075899914
59	0xba6feb7f	-0.0009152218
60	0xba1ff6c8	-0.0006102142
61	0x3a4ea0fe	0.0007882266
62	0xba312cf6	-0.0006758714
63	0x3a5a8832	0.0008336335
64	0xb9f0eab1	-0.00045951226
65	0x39fc09a4	0.00048072368
66	0xb9de332a	-0.0004238126
67	0x3a1970e9	0.0005853312
68	0x3a61aa08	0.00086084055
69	0xba7cba80	-0.0009640828
70	0x3a5736a1	0.00082097395
71	0xba81dee9	-0.0009908351
72	0xba4076af	-0.0007341904
73	0x3a6d69d4	0.0009056602
74	0xba59433d	-0.00082879124
75	0x3a77bcfe	0.0009450464
76	0x39814552	0.00024656445
77	0xb9b4cb3c	-0.00034483697
78	0x3996fc92	0.0002879841
79	0xb9c0820c	-0.00036717986
80	0xba524668	-0.00080213556
81	0x3a756869	0.00093615666
82	0xba52d593	-0.00080426893
83	0x3a81e597	0.0009910342
84	0xb9c6ab25	-0.00037893016
85	0x39e04582	0.00042776397
86	0xb9de832c	-0.0004244087
87	0x39bca6e7	0.00035982506
88	0xba5dbe7c	-0.00084588653
89	0x3a7f6d17	0.00097437337
90	0xba532778	-0.00080548925
91	0x3a92a620	0.0011188425
92	0xb9ea4561	-0.0004468365
93	0x39e70af8	0.00044067926
94	0xb98d6d5b	-0.00026975092
95	0x3a1c9d6d	0.0005974386
96	0xba5fea54	-0.00085416925
97	0x3a7ec57d	0.0009718759
98	0xba536935	-0.00080646883
99	0x3a8315f5	0.001000105
100	0xba2f1cd5	-0.00066800165
101	0x3a362268	0.0006947876
102	0xba20dcfd	-0.00061364454
103	0x3a3f00de	0.0007286201
104	0xb9128207	-0.00013972084
105	0x38c10cfb	9.205375e-05
106	0x36041505	1.9681768e-06
107	0x398a7e40	0.00026415475
108	0x39a061dd	0.00030590492
109	0xb9da6fdb	-0.0004166354
110	0x39b8ae42	0.00035225047
111	0xba3859cf	-0.00070324255
112	0xb9e2dedf	-0.0004327213
113	0x38e963c0	0.00011128886
114	0xb8dd783c	-0.000105604966
115	0x39907784	0.00027554866
116	0x3a6ae384	0.0008960294
117	0xba6283c0	-0.0008640848
118	0x3a406532	0.0007339298
119	0xba7ff4c6	-0.0009763952
120	0xb9334f47	-0.00017100303
121	0x3950e7f7	0.0001992284
122	0xb94422c7	-0.00018704972
123	0x39ae75cc	0.00033275632
124	0x398be7da	0.0002668489
125	0xb9981594	-0.00029007776
126	0x395753b0	0.00020535174
127	0xba00404d	-0.0004892394
128	0xba592495	-0.0008283344
129	0x3a727797	0.00092493877
130	0xba51e904	-0.00080074393
131	0x3a689b06	0.0008873198
132	0xba67b8af	-0.00088394707
133	0x3a801363	0.0009771403
134	0xba558fca	-0.00081467314
135	0x3a882661	0.0010387414
136	0xba3ce3c2	-0.00072055694
137	0x3a61fe81	0.0008620993
138	0xba2f24d9	-0.0006681211
139	0x3a6b6b39	0.0008980516
140	0xba3bd44c	-0.00071651186
141	0x3a377b70	0.00069992896
142	0xba2d3954	-0.0006607969
143	0x3a5d2ec2	0.00084374484
144	0x3a0c23d6	0.0005345916
145	0xb9ff7f98	-0.00048732455
146	0x39dd997d	0.00042266762
147	0xba236c83	-0.0006234126
148	0xba190db5	-0.00058385293
149	0x3a478d0e	0.00076122663
150	0xba1ddd7b	-0.0006022078
151	0x3a49db97	0.0007700263
152	0xba2702cd	-0.0006370962
153	0x3a491909	0.0007671272
154	0xba32f116	-0.0006826086
155	0x3a664fe1	0.00087857066
156	0x3a4de8b1	0.0007854803
157	0xba501a31	-0.0007938473
158	0x3a150342	0.00056843844
159	0xba683181	-0.00088574743
160	0xba24c525	-0.00062854803
161	0x3a29f24f	0.0006482945
162	0xba2921df	-0.00064518856
163	0x3a34c0d9	0.00068951916
164	0x3a5db797	0.0008457838
165	0xba68aac1	-0.0008875542
166	0x3a462efc	0.0007560102
167	0xba891c68	-0.0010460736
168	0xb9a4cf85	-0.00031435132
169	0x394e9ba3	0.0001970367
170	0xb91a9711	-0.00014742861
171	0x3991c6da	0.0002780471
172	0xb98cb9a5	-0.00026841197
173	0x38d3966f	0.000100892845
174	0x38941813	7.061674e-05
175	0x39c6fc1b	0.00037953336
176	0x39907831	0.0002755537
177	0xb9603597	-0.00021382268
178	0x38832c3a	6.2548046e-05
179	0xb9aed791	-0.00033348476
180	0x39a50c9f	0.00031480656
181	0xb9df31c6	-0.0004257096
182	0x39f61ab2	0.00046940666
183	0xb9d4bf0f	-0.0004057814
184	0x3a0ee628	0.0005451166
185	0xb9f5a80d	-0.0004685525
186	0x39432c15	0.00018613071
187	0xba0ba02d	-0.0005326297
188	0x3a4b6da2	0.0007760172
189	0xba38578a	-0.00070320873
190	0x3a3c4a9e	0.00071827497
191	0xba4d7e9f	-0.00078389974
192	0x3a369555	0.0006965001
193	0xba401c44	-0.00073284307
194	0x3a272aa2	0.0006376897
195	0xba521aab	-0.0008014838
196	0x392d2678	0.00016512896
197	0xb9c116c7	-0.000368288
198	0x39a90033	0.0003223434
199	0xb95b1b5f	-0.00020895664
200	0xb9beb3f7	-0.00036373708
201	0x39b23b35	0.00033994918
202	0xb973a235	-0.00023234713
203	0x39fa3e58	0.00047730166
204	0x3a48b885	0.000765689
205	0xba228838	-0.0006200108
206	0x39de9e13	0.00042460914
207	0xba4cb62d	-0.0007809129
208	0x3a4604b8	0.0007553804
209	0xba03e03c	-0.0005030667
210	0x39ab63a2	0.00032689894
211	0xba213bdb	-0.0006150582
212	0xb9c03931	-0.00036663705
213	0x39e81972	0.00044269447
214	0xb9a80078	-0.00032043806
215	0x39ff6137	0.0004870982
216	0x3a5a2e3b	0.0008322929
217	0xba5d061d	-0.0008431392
218	0x3a4a8f71	0.0007727063
219	0xba78a6fd	-0.00094853324
220	0xba23e087	-0.0006251414
221	0x3a297115	0.0006463689
222	0xba2b51d1	-0.0006535324
223	0x3a363d09	0.0006951844
224	0xba4a51b7	-0.0007717865
225	0x3a5e5bcd	0.00084823073
226	0xba32083f	-0.000679139
227	0x3a7a624e	0.00095513917
228	0xba164185	-0.0005731809
229	0x3a136342	0.00056223955
230	0xb9b83c04	-0.0003513993
231	0x3a265e26	0.00063464267
232	0xba0f1fc7	-0.0005459752
233	0x3a284e41	0.0006420352
234	0xba1ef114	-0.0006063145
235	0x3a410cab	0.00073642534
236	0x3a5bf6bb	0.0008390953
237	0xba133808	-0.0005615954
238	0x3a22bcc4	0.0006207938
239	0xba5b4c8d	-0.0008365594
240	0xba4aa730	-0.00077306014
241	0x3a2fb264	0.00067023025
242	0xba18dc2b	-0.00058311474
243	0x3a503418	0.0007942333
244	0xba4ad359	-0.0007737182
245	0x3a710674	0.0009194382
246	0xba4db499	-0.00078470405
247	0x3a80cc0e	0.0009826438
248	0xba4071db	-0.00073411845
249	0x3a33783b	0.0006846224
250	0xba218431	-0.00061613607
251	0x3a57bfa5	0.00082301564
252	0x39e8dbe0	0.00044414308
253	0xb99435f7	-0.00028268967
254	0x391d6f2c	0.00015014102
255	0xb9f789aa	-0.0004721408
